proyecto/Mnist/pesosguardadosc1/weights.npy (npy, 802944 bytes, 1 tensors)

array f8 [784, 128]
000000 28 36 5b 00 00 00 00 00 38 ec 15 00 00 00 00 00
       2.9533466e-317 7.09838e-318
000010 9c 9d 37 00 00 00 00 80 d1 3e 56 00 00 00 00 80
       -1.8007843e-317 -2.7925465e-317
000020 6b 72 76 00 00 00 00 00 33 74 45 00 00 00 00 80
       3.835204e-317 -2.248854e-317
000030 13 64 2b 00 00 00 00 00 30 5e 40 00 00 00 00 00
       1.404958e-317 2.0841744e-317
000040 06 26 66 00 00 00 00 00 1a b7 29 00 00 00 00 80
       3.307476e-317 -1.3507014e-317
000050 9d d4 46 00 00 00 00 00 1a b7 29 00 00 00 00 00
       2.2934275e-317 1.3507014e-317
000060 22 66 63 00 00 00 00 80 7b c2 24 00 00 00 00 00
       -3.2184474e-317 1.190245e-317
000070 90 74 56 00 00 00 00 80 07 01 70 00 00 00 00 80
       -2.7993443e-317 -3.6265876e-317
000080 db 09 34 00 00 00 00 00 51 ac 84 00 00 00 00 80
       1.684959e-317 -4.295834e-317
000090 d9 cd 2a 00 00 00 00 00 5d c6 79 00 00 00 00 00
       1.3859574e-317 3.9429586e-317
0000a0 3d b3 23 00 00 00 00 00 37 d3 4d 00 00 00 00 80
       1.155938e-317 -2.5199043e-317
0000b0 a5 bf 73 00 00 00 00 00 1b 0e 77 00 00 00 00 80
       3.7478343e-317 -3.8548953e-317
0000c0 5f 99 07 00 00 00 00 00 1a b7 29 00 00 00 00 80
       2.46052e-318 -1.3507014e-317
0000d0 d1 3e 56 00 00 00 00 00 b4 23 6c 00 00 00 00 00
       2.7925465e-317 3.501457e-317
0000e0 45 d2 99 00 00 00 00 00 ad 2a 8a 00 00 00 00 00
       4.980595e-317 4.4737116e-317
0000f0 98 87 41 00 00 00 00 80 57 01 6a 00 00 00 00 80
       -2.1217906e-317 -3.4323526e-317
000100 2f 23 8e 00 00 00 00 80 e8 97 51 00 00 00 00 80
       -4.6022803e-317 -2.641919e-317
000110 90 3e 31 00 00 00 00 00 8d 88 a5 00 00 00 00 80
       1.594488e-317 -5.3598203e-317
000120 c9 04 81 00 00 00 00 00 b9 ea 35 00 00 00 00 80
       4.1775073e-317 -1.7457795e-317
000130 7e 64 08 00 00 00 00 00 b1 09 b4 00 00 00 00 00
       2.71743e-318 5.8294613e-317
000140 23 d7 43 00 00 00 00 00 95 eb 01 00 00 00 00 80
       2.1966094e-317 -6.21757e-319
000150 93 ff 36 00 00 00 00 80 d0 28 bb 00 00 00 00 00
       -1.780796e-317 6.060051e-317
000160 9d d4 46 00 00 00 00 00 9d d4 46 00 00 00 00 80
       2.2934275e-317 -2.2934275e-317
000170 5f 99 07 00 00 00 00 80 ba 94 46 00 00 00 00 00
       -2.46052e-318 2.285347e-317
000180 e5 74 03 00 00 00 00 00 4e 3a 52 00 00 00 00 80
       1.11922e-318 -2.6624595e-317
000190 dc e6 11 00 00 00 00 00 95 eb 01 00 00 00 00 00
       5.796437e-318 6.21757e-319
0001a0 93 5c 27 00 00 00 00 80 04 07 3e 00 00 00 00 80
       -1.274493e-317 -2.0083907e-317
0001b0 a8 57 22 00 00 00 00 80 ac 61 84 00 00 00 00 80
       -1.111976e-317 -4.286393e-317
0001c0 43 1d 0a 00 00 00 00 00 b0 d5 7c 00 00 00 00 00
       3.27492e-318 4.042034e-317
0001d0 a5 e2 71 00 00 00 00 00 05 59 43 00 00 00 00 00
       3.687503e-317 2.180658e-317
0001e0 8a ea 5e 00 00 00 00 80 56 49 21 00 00 00 00 80
       -3.073299e-317 -1.0777854e-317
0001f0 37 68 49 00 00 00 00 80 57 01 6a 00 00 00 00 00
       -2.3768545e-317 3.4323526e-317
000200 a5 f7 0f 00 00 00 00 80 a9 24 35 00 00 00 00 00
       -5.170086e-318 1.7207284e-317
000210 42 91 41 00 00 00 00 80 d4 e0 20 00 00 00 00 00
       -2.123013e-317 1.064567e-317
000220 b4 23 6c 00 00 00 00 80 fc 0c 32 00 00 00 00 80
       -3.501457e-317 -1.6205966e-317
000230 dc 90 71 00 00 00 00 00 60 22 01 00 00 00 00 00
       3.6771587e-317 3.6727e-319
000240 e8 3e 0b 00 00 00 00 80 57 01 6a 00 00 00 00 00
       -3.641264e-318 3.4323526e-317
000250 93 5c 27 00 00 00 00 80 c4 16 77 00 00 00 00 00
       -1.274493e-317 3.8559907e-317
000260 19 90 08 00 00 00 00 80 45 b6 4b 00 00 00 00 00
       -2.772583e-318 2.451485e-317
000270 b9 ea 35 00 00 00 00 00 7b c2 24 00 00 00 00 00
       1.7457795e-317 1.190245e-317
000280 c6 3d b1 00 00 00 00 80 d7 dd 11 00 00 00 00 80
       -5.7389114e-317 -5.78503e-318
000290 88 98 02 00 00 00 00 80 ac 39 b5 00 00 00 00 80
       -8.40504e-319 -5.867909e-317
0002a0 5b dc 1c 00 00 00 00 80 98 fb 80 00 00 00 00 80
       -9.34485e-318 -4.176345e-317
0002b0 98 87 41 00 00 00 00 80 8b 55 51 00 00 00 00 00
       -2.1217906e-317 2.6335255e-317
0002c0 31 08 7f 00 00 00 00 00 c2 ca 20 00 00 00 00 00
       4.11318e-317 1.0617757e-317
0002d0 a9 56 32 00 00 00 00 00 a0 8c c1 00 00 00 00 00
       1.629915e-317 6.26695e-317
0002e0 1e a2 80 00 00 00 00 00 8a d6 38 00 00 00 00 00
       4.1650277e-317 1.840364e-317
0002f0 a3 9f 2c 00 00 00 00 00 d0 28 bb 00 00 00 00 80
       1.444871e-317 -6.060051e-317
000300 98 87 41 00 00 00 00 00 e6 44 32 00 00 00 00 80
       2.1217906e-317 -1.6276686e-317
000310 b3 22 30 00 00 00 00 80 e5 74 03 00 00 00 00 80
       -1.558585e-317 -1.11922e-318
000320 b0 87 5f 00 00 00 00 80 b4 23 6c 00 00 00 00 00
       -3.093175e-317 3.501457e-317
000330 23 d6 00 00 00 00 00 00 5a 60 a2 00 00 00 00 80
       2.7084e-319 -5.2575986e-317
000340 46 71 01 00 00 00 00 80 f0 c6 06 00 00 00 00 80
       -4.6706e-319 -2.194363e-318
000350 43 b4 0e 00 00 00 00 80 38 29 3d 00 00 00 00 00
       -4.76107e-318 1.9803376e-317
000360 45 d2 99 00 00 00 00 00 11 b8 80 00 00 00 00 00
       4.980595e-317 4.167804e-317
000370 93 ff 36 00 00 00 00 80 e0 c1 72 00 00 00 00 00
       -1.780796e-317 3.7157373e-317
000380 8a d6 38 00 00 00 00 80 6a 1d 5d 00 00 00 00 80
       -1.840364e-317 -3.0149753e-317
000390 f4 01 2a 00 00 00 00 00 98 87 41 00 00 00 00 80
       1.3601687e-317 -2.1217906e-317
0003a0 cb 0c 4c 01 00 00 00 00 e3 a2 3c 00 00 00 00 80
       1.07514747e-316 -1.963347e-317
0003b0 6a 1d 5d 00 00 00 00 00 b3 57 56 00 00 00 00 00
       3.0149753e-317 2.7956937e-317
0003c0 a8 57 22 00 00 00 00 80 07 01 70 00 00 00 00 00
       -1.111976e-317 3.6265876e-317
0003d0 73 93 77 00 00 00 00 00 0f cb 6f 00 00 00 00 00
       3.8717607e-317 3.6197616e-317
0003e0 28 36 5b 00 00 00 00 80 13 64 2b 00 00 00 00 80
       -2.9533466e-317 -1.404958e-317
0003f0 26 1c 09 00 00 00 00 00 08 2f 0c 00 00 00 00 80
       2.94972e-318 -3.944976e-318
000400 f4 01 2a 00 00 00 00 00 91 82 69 00 00 00 00 80
       1.3601687e-317 -3.416318e-317
000410 4b 3d 03 00 00 00 00 80 61 a9 44 00 00 00 00 00
       -1.048896e-318 2.223201e-317
000420 10 87 42 00 00 00 00 00 08 d6 57 00 00 00 00 80
       2.1541025e-317 -2.8440513e-317
000430 ac 95 3e 00 00 00 00 00 be 5d 2c 00 00 00 00 00
       2.026434e-317 1.4365364e-317
000440 15 e3 2c 00 00 00 00 80 93 ff 36 00 00 00 00 00
       -1.4534013e-317 1.780796e-317
000450 da 8b 4b 01 00 00 00 00 31 08 7f 00 00 00 00 80
       1.0735166e-316 -4.11318e-317
000460 d1 3e 56 00 00 00 00 00 e8 57 10 00 00 00 00 00
       2.7925465e-317 5.29184e-318
000470 c5 2d 08 00 00 00 00 80 10 87 42 00 00 00 00 80
       -2.648217e-318 -2.1541025e-317
000480 ac 0d 39 00 00 00 00 80 07 01 70 00 00 00 00 80
       -1.847337e-317 -3.6265876e-317
000490 5f 00 00 00 00 00 00 00 cf b5 03 00 00 00 00 00
       4.7e-322 1.201326e-318
0004a0 87 e3 3c 00 00 00 00 00 8a d6 38 00 00 00 00 80
       1.971523e-317 -1.840364e-317
0004b0 a5 f7 0f 00 00 00 00 00 14 83 67 00 00 00 00 80
       5.170086e-318 -3.3516247e-317
0004c0 ca 12 41 00 00 00 00 80 c0 6e 09 00 00 00 00 00
       -2.107017e-317 3.054195e-318
0004d0 c2 ca 20 00 00 00 00 80 4b 7b 50 00 00 00 00 00
       -1.0617757e-317 2.605921e-317
0004e0 1e 5a 65 00 00 00 00 00 f5 42 b3 00 00 00 00 80
       3.281686e-317 -5.804325e-317
0004f0 1f c0 2b 00 00 00 00 80 a0 ff 05 00 00 00 00 80
       -1.4166003e-317 -1.94227e-318
000500 df a7 c2 00 00 00 00 80 43 b4 0e 00 00 00 00 00
       -6.302775e-317 4.76107e-318
000510 08 2f 0c 00 00 00 00 80 d1 bf 0a 00 00 00 00 80
       -3.944976e-318 -3.48052e-318
000520 d0 a8 28 00 00 00 00 80 6a 1d 5d 00 00 00 00 80
       -1.316515e-317 -3.0149753e-317
000530 8c 0d 02 00 00 00 00 80 27 f5 41 00 00 00 00 80
       -6.64716e-319 -2.1356477e-317
000540 24 3c 10 00 00 00 00 80 c9 24 13 00 00 00 00 80
       -5.25672e-318 -6.198553e-318
000550 4b 38 86 00 00 00 00 80 1b 0e 77 00 00 00 00 00
       -4.3459175e-317 3.8548953e-317
000560 91 82 69 00 00 00 00 80 43 1d 0a 00 00 00 00 80
       -3.416318e-317 -3.27492e-318
000570 07 01 70 00 00 00 00 00 93 ff 36 00 00 00 00 00
       3.6265876e-317 1.780796e-317
000580 43 1d 0a 00 00 00 00 00 93 5c 27 00 00 00 00 80
       3.27492e-318 -1.274493e-317
000590 33 af 3f 00 00 00 00 00 e0 c1 72 00 00 00 00 00
       2.062042e-317 3.7157373e-317
0005a0 ac 0d 39 00 00 00 00 80 ce 01 17 00 00 00 00 00
       -1.847337e-317 7.44947e-318
0005b0 06 6d 24 00 00 00 00 80 38 29 3d 00 00 00 00 80
       -1.1794365e-317 -1.9803376e-317
0005c0 60 22 01 00 00 00 00 80 28 36 5b 00 00 00 00 80
       -3.6727e-319 -2.9533466e-317
0005d0 09 d0 25 00 00 00 00 00 1e a2 80 00 00 00 00 80
       1.2243386e-317 -4.1650277e-317
0005e0 b0 88 70 00 00 00 00 80 4b 3d 03 00 00 00 00 80
       -3.643746e-317 -1.048896e-318
0005f0 c8 54 09 00 00 00 00 00 e8 97 51 00 00 00 00 80
       3.02135e-318 -2.641919e-317
000600 a8 0d 8c 00 00 00 00 80 6f 08 4a 00 00 00 00 80
       -4.5347993e-317 -2.397119e-317
000610 8e 4b 3f 00 00 00 00 00 33 74 45 00 00 00 00 80
       2.0494386e-317 -2.248854e-317
000620 0c b6 25 00 00 00 00 80 27 27 3c 00 00 00 00 80
       -1.2210516e-317 -1.947697e-317
000630 1f c0 2b 00 00 00 00 80 84 e4 b1 00 00 00 00 00
       -1.4166003e-317 5.760001e-317
000640 24 3c 10 00 00 00 00 80 c8 54 09 00 00 00 00 80
       -5.25672e-318 -3.02135e-318
000650 b1 94 5e 00 00 00 00 80 b0 87 5f 00 00 00 00 00
       -3.0624407e-317 3.093175e-317
000660 06 6d 24 00 00 00 00 00 98 87 41 00 00 00 00 80
       1.1794365e-317 -2.1217906e-317
000670 95 eb 01 00 00 00 00 00 c3 f1 6a 00 00 00 00 80
       6.21757e-319 -3.4627614e-317
000680 12 c0 27 00 00 00 00 80 1a b7 29 00 00 00 00 00
       -1.2870776e-317 1.3507014e-317
000690 ac 39 b5 00 00 00 00 00 e6 1b 21 00 00 00 00 00
       5.867909e-317 1.0720385e-317
0006a0 24 3c 10 00 00 00 00 00 98 fb 80 00 00 00 00 00
       5.25672e-318 4.176345e-317
0006b0 a6 9b 23 00 00 00 00 80 c6 3d b1 00 00 00 00 00
       -1.1529546e-317 5.7389114e-317
0006c0 ac 0d 39 00 00 00 00 80 e0 c1 72 00 00 00 00 00
       -1.847337e-317 3.7157373e-317
0006d0 a8 57 22 00 00 00 00 80 95 eb 01 00 00 00 00 00
       -1.111976e-317 6.21757e-319
0006e0 b0 88 70 00 00 00 00 00 11 ff 74 00 00 00 00 80
       3.643746e-317 -3.788235e-317
0006f0 59 ba 0b 00 00 00 00 00 da 8b 4b 01 00 00 00 80
       3.797393e-318 -1.0735166e-316
000700 93 5c 27 00 00 00 00 80 e8 3e 0b 00 00 00 00 80
       -1.274493e-317 -3.641264e-318
000710 24 3c 10 00 00 00 00 00 09 48 57 00 00 00 00 80
       5.25672e-318 -2.8260916e-317
000720 45 b6 4b 00 00 00 00 00 4e 32 18 00 00 00 00 00
       2.451485e-317 7.834606e-318
000730 cd 50 5d 00 00 00 00 80 d0 7d 02 00 00 00 00 80
       -3.021475e-317 -8.0671e-319
000740 23 d6 00 00 00 00 00 80 05 59 43 00 00 00 00 00
       -2.7084e-319 2.180658e-317
000750 1b 0e 77 00 00 00 00 00 09 d0 25 00 00 00 00 80
       3.8548953e-317 -1.2243386e-317
000760 a5 bf 73 00 00 00 00 00 93 ff 36 00 00 00 00 80
       3.7478343e-317 -1.780796e-317
000770 e2 21 75 00 00 00 00 80 6a 1d 5d 00 00 00 00 80
       -3.7926386e-317 -3.0149753e-317
000780 08 90 2c 00 00 00 00 80 15 e3 2c 00 00 00 00 80
       -1.442897e-317 -1.4534013e-317
000790 7e 21 25 00 00 00 00 80 24 3c 10 00 00 00 00 00
       -1.2022623e-317 5.25672e-318
0007a0 8a ea 5e 00 00 00 00 00 b0 d5 7c 00 00 00 00 80
       3.073299e-317 -4.042034e-317
0007b0 91 82 69 00 00 00 00 00 90 3e 31 00 00 00 00 00
       3.416318e-317 1.594488e-317
0007c0 db 4f 40 00 00 00 00 80 27 27 3c 00 00 00 00 00
       -2.0823617e-317 1.947697e-317
0007d0 28 36 5b 00 00 00 00 00 25 ab 80 00 00 00 00 00
       2.9533466e-317 4.1661695e-317
0007e0 ac 61 84 00 00 00 00 00 b7 ae 6e 00 00 00 00 80
       4.286393e-317 -3.5837976e-317
0007f0 15 e3 2c 00 00 00 00 00 51 ac 84 00 00 00 00 00
       1.4534013e-317 4.295834e-317
