proyecto/Mnist/pesosguardadosc3/weights.npy (npy, 2688 bytes, 1 tensors)

array f8 [32, 10]
000000 8f 85 ed db 4a 9a 18 38 90 3f b6 4b 3c 5f 51 09
       1.8075212787051629e-38 8.620133116292094e-264
000010 ed c5 67 df 81 60 0e 3d 05 41 71 72 aa 06 07 bc
       1.3490089800687962e-14 -1.560305047833348e-19
000020 6c 07 62 8a e2 0b 88 bd 10 52 a5 68 62 cf 5d 2e
       -2.7337620718518857e-12 2.397643477421579e-85
000030 6c 1c 31 a9 25 f4 40 3d 4f d7 2f a1 94 8c ec 3d
       1.204632813753991e-13 2.0772235372182274e-10
000040 d2 21 84 ed 98 8b 03 bc a8 90 c7 50 7e 86 23 b9
       -1.3244411971093342e-19 -1.8802242489432725e-33
000050 19 e5 02 b4 fb 8a 24 bf 01 f2 2b 00 00 00 00 80
       -0.00015672991321994607 -1.4229096e-317
000060 dc 8e a1 8a f1 df b2 3c d0 58 4a bf 1c 6a 38 3b
       2.619401831718924e-16 2.0195202014689194e-23
000070 4c 22 dc 8d 49 f1 05 ba 68 a0 e7 24 91 68 5e 3a
       -3.4619205943908913e-29 1.5352351365531802e-27
000080 09 67 dc 37 44 c9 d2 bd 34 77 ec aa 7b 2a dc a5
       -6.834378719660222e-11 -2.6005560965764302e-126
000090 e6 97 15 94 0b 66 90 be 99 9c 5c 0e 03 c1 1c 3b
       -2.4435839315048916e-07 5.94617808964511e-24
0000a0 f9 92 d4 9d 56 13 26 8e e0 91 02 01 38 21 20 05
       -1.6553308811411907e-240 5.423529722638479e-284
0000b0 51 d1 76 ca c3 20 b2 a9 af 48 9c 91 cf e8 c2 02
       -7.718824289001858e-108 2.3130893405423236e-295
0000c0 30 75 d7 b2 00 84 20 b1 24 64 83 b3 53 cf 79 9e
       -4.673759259934446e-72 -7.17113955390207e-162
0000d0 a7 23 6e 5d 0c 8c 24 29 99 1b 82 a8 f4 9d 70 bb
       1.708761171004868e-110 -2.199243549113931e-22
0000e0 d8 d4 05 9c b9 ca de a1 14 0a 78 3d 29 06 3b 3a
       -1.5411982949698794e-145 3.410916764517704e-28
0000f0 2a 36 80 32 20 c8 4d 94 a9 65 79 00 00 00 00 80
       -7.077227149817382e-211 -3.9307275e-317
000100 b8 7e 92 cf 6e d2 75 9b f0 6c 7d f5 f0 57 7c 0d
       -2.154056881895781e-176 1.0377609222659138e-243
000110 1d 9d 26 00 00 00 00 00 26 e1 62 00 00 00 00 00
       1.250277e-317 3.2016274e-317
000120 37 80 3f 00 00 00 00 80 cd 4d 8e 3b d8 93 79 89
       -2.056099e-317 -5.0767081886287475e-263
000130 52 1d 69 36 0d 7d 55 8a 84 9e 55 d6 a6 75 73 18
       -6.987945221747071e-259 6.824269241914603e-191
000140 02 70 50 8f 6e 6f 48 97 69 21 16 00 00 00 00 00
       -1.6344444828246494e-196 7.165656e-318
000150 60 55 25 75 ef fe 30 a9 a8 9d 48 00 00 00 00 80
       -2.8268597594983297e-110 -2.3512347e-317
000160 ee f6 15 00 00 00 00 00 8e 86 36 00 00 00 00 80
       7.111927e-318 -1.765489e-317
000170 7b 45 3f fb 52 43 47 17 60 bd c1 86 23 3b b1 a9
       1.5560311246009512e-196 -7.336895215839269e-108
000180 bf 2d 31 00 00 00 00 80 20 47 20 00 00 00 00 80
       -1.592361e-317 -1.0451267e-317
000190 cc 67 58 48 cd 8f 01 2f 13 4d 58 00 00 00 00 80
       2.8927998893324773e-82 -2.859108e-317
0001a0 b5 60 05 00 00 00 00 80 41 b8 ae 44 80 47 35 ac
       -1.74127e-318 -9.962280018999081e-96
0001b0 fe b0 bf d1 68 94 e7 39 80 28 e7 ee 89 cd 76 8b
       9.30056137385947e-30 -1.943898007401908e-253
0001c0 af 9a 47 00 00 00 00 00 51 de 98 71 2f 37 c5 af
       2.3184796e-317 -1.431415769617709e-78
0001d0 bc 8a 16 7f 0f 59 d4 32 82 21 5e 84 56 68 10 af
       7.728591747263057e-64 -5.405370382569979e-82
0001e0 23 5b 12 81 d8 e4 45 bf 96 d4 a5 91 ce de 11 bc
       -0.0006681496762606969 -2.421882612512053e-19
0001f0 e5 ce 0b 58 88 e2 df 3e 77 3c ce c3 b6 5e 8a 3e
       7.601950870340001e-06 1.9647163354257652e-07
000200 58 d3 2e 60 a1 17 a1 36 42 65 1d d0 62 d4 38 3d
       1.496963897309022e-45 8.821257596714254e-14
000210 65 f2 89 06 5e 58 f4 3e a9 53 f2 78 2f 62 13 3a
       1.9402680126111983e-05 6.116365777312638e-29
000220 78 b8 14 aa 92 cc 41 bf 19 23 c3 c3 c7 8b b7 ba
       -0.0005431858191167335 -7.608128397222005e-26
000230 88 a3 c9 80 e5 f8 a2 28 56 9b eb 63 5c 53 dd 2d
       6.163260408854567e-113 9.213584083542285e-88
000240 61 ab 19 25 2a 5f 6e 3b 69 b1 ff 95 af cf 5e b9
       2.009832950059467e-22 -2.3736141301755664e-32
000250 62 62 e4 53 bf fd 8b bc 2d d2 90 5f 94 36 26 33
       -4.855699293876296e-17 2.6998650837045607e-62
000260 56 e1 da 12 3e 8f a8 2e 1a 95 3b 71 a7 a2 83 b6
       6.321082562512613e-84 -4.299220355924971e-46
000270 8b 8e da 0c 5f 38 e9 3d 87 80 18 4f 92 f0 b7 bc
       1.8350110877584227e-10 -3.3223052777857216e-16
000280 40 5f 17 e3 f7 d2 e2 3f 76 31 34 82 aa bd e2 3f
       0.5882529673935792 0.5856525939030195
000290 d2 41 39 34 f0 fb c9 3f 3c 4d 1e 6c f3 e6 bb bf
       0.2030010466574042 -0.10899278058632417
0002a0 03 5e 16 ec 8a 8d ef 3f 5c 2e e7 11 00 f7 cb 3f
       0.9860281573373303 0.21847535013363284
0002b0 ac 84 fd fd 40 dd d9 3f 6a 9c f9 4f d2 07 ce 3f
       0.4041292648672179 0.2346136942389621
0002c0 df 84 2c 64 16 88 de 3f 84 92 d6 a1 7d c6 ea 3f
       0.477056119752957 0.8367298279668636
0002d0 00 d5 3a 00 00 00 00 80 30 6a 31 45 87 c8 4d 8f
       -1.9049274e-317 -5.854454245511467e-235
0002e0 72 fe 0c 1a e1 f2 b9 32 33 5d 49 bb 26 64 1d 96
       2.4639808771754855e-64 -3.749734140073671e-202
0002f0 02 91 42 94 9f 1d bc 0a 6a 20 22 10 41 18 dd 8b
       5.851576175996123e-257 -1.5873699540913251e-251
000300 73 64 38 e3 f3 03 8f a3 fc 09 b1 3d 1f 37 8a b3
       -2.0835788454502972e-137 -2.039229245895809e-60
000310 04 d4 12 24 5e 01 29 a4 21 98 5a 49 ef 2b 93 1c
       -1.7201438152979545e-134 4.960909257222008e-171
000320 75 53 fa 5a fa 13 e0 3f 2d 43 ab 1c 2f 47 98 3f
       0.5024387146864756 0.023709045529190554
000330 b1 0b 9d de 35 8c c9 3f 8e ac 41 40 da 39 91 3f
       0.19959138269231638 0.01682225243750373
000340 b3 6d 9a a9 b0 bb db 3f 9d 75 dd 5e af b3 db 3f
       0.43333069384399464 0.4328421045700795
000350 95 4b 03 c7 c6 70 ea 3f 21 99 26 a4 55 8c 60 3f
       0.826266659447685 0.0020200417213401965
000360 ab 34 77 b9 2e 8b de 3f d5 0d 58 14 f4 c6 d0 3f
       0.4772450267017329 0.262143154017591
000370 dc bf d4 40 90 36 c4 3f 36 b9 d0 ba d8 05 ac 3f
       0.1579151455457567 0.0547321060224583
000380 2b 6e b4 e9 42 34 d3 3f 6c 65 14 88 c2 e4 d9 bf
       0.30006478140578235 -0.4045873955634167
000390 ec f2 b7 7e d8 4b ab 3f e9 fc 05 16 4d 81 c9 bf
       0.053313031643460324 -0.1992584569488607
0003a0 f6 98 c3 52 f7 d9 b6 3f 12 c6 71 9d c0 92 97 bf
       0.0892633988438297 -0.02302075348820238
0003b0 35 73 3c 7c a4 1a d2 bf 5a cd e4 20 3d de e0 bf
       -0.2828761304133878 -0.52712875771105
0003c0 1f bb 2e 00 00 00 00 80 23 20 1a 0e b4 1b 51 09
       -1.513105e-317 8.48923461445578e-264
0003d0 59 f5 43 5c e8 6d 33 90 b6 4c a2 5f c8 ab 69 95
       -1.2514718433792865e-230 -1.599175767564315e-205
0003e0 ed 32 45 79 1a 0f d3 86 65 89 4e 00 00 00 00 80
       -8.60129886747917e-276 -2.5429465e-317
0003f0 62 42 22 00 00 00 00 00 a0 a0 6a 00 00 00 00 80
       1.109285e-317 -3.452499e-317
000400 0e 70 45 8a 7c 4c 27 87 d1 86 15 00 00 00 00 00
       -3.364705455430024e-274 6.970125e-318
000410 b0 f0 c0 83 6b 8a de 3f fe 81 8b e5 2a a0 b2 bf
       0.47719848505563345 -0.07275646309017955
000420 15 cb 9f 34 e8 e2 df 3f de d7 f0 41 d3 02 e0 3f
       0.49822430743295004 0.5003448760896807
000430 d1 b5 28 76 c4 e9 e0 bf 53 ed 11 32 ae ed bb bf
       -0.5285360629838413 -0.10909546587384016
000440 fe 96 04 96 61 c9 c0 bf 23 fb 75 66 f9 09 b2 bf
       -0.13114566636175334 -0.07046469451414032
000450 e6 33 32 f5 1d 43 e9 3f dc a7 29 fb 33 1a d3 3f
       0.7894429959284224 0.29847430732354296
000460 22 f0 ab 2b 5c b9 48 ba 9b 1f 36 00 00 00 00 80
       -6.241230864637196e-28 -1.752468e-317
000470 b8 7c dd 8e 5c 82 b3 2b 30 09 d0 e0 de b5 69 a9
       3.567807678007786e-98 -3.4210621048601523e-109
000480 b2 51 ce 97 fa a2 f0 90 70 90 64 10 10 3e 35 ae
       -4.38923465046466e-227 -4.271353329690453e-86
000490 37 4e 43 9f 9e ba 19 bb be 66 f0 eb 54 07 0c 34
       -5.320628955067492e-24 5.581524868661969e-58
0004a0 d8 6f 39 74 5f 5d 09 1c 6b d9 28 00 00 00 00 00
       1.2819257970006893e-173 1.3226626e-317
0004b0 da f2 31 00 00 00 00 80 7e 46 33 19 01 c9 64 a1
       -1.6172913e-317 -8.127664749114477e-148
0004c0 50 7b 68 36 59 03 e5 37 53 f5 60 dc 4e 2a a7 35
       1.9297466299221764e-39 3.0957652493328746e-50
0004d0 29 74 eb 6e 86 04 20 a7 4e 6e bd 61 93 52 d6 96
       -3.10149618458556e-120 -1.166505782595729e-198
0004e0 50 f2 25 00 00 00 00 80 7f 47 a0 f7 21 13 d1 3c
       -1.228674e-317 9.478383106000937e-16
0004f0 a5 f4 b4 c3 9e 11 f4 87 7c e5 19 8e 9c 53 55 bd
       -2.374247179003541e-270 -3.030693220435806e-13
000500 7b 10 70 b9 28 5f 03 bc a2 f6 45 7d 46 52 ad 3c
       -1.3126784784558897e-19 2.0345800101701365e-16
000510 7d b9 9b 88 25 d0 85 3e 32 16 36 d5 48 24 b7 3d
       1.625200563496683e-07 2.104728659214277e-11
000520 99 d9 a8 db 42 b7 6e 33 15 6d d0 4b ee 4f 47 3e
       5.973290327010716e-61 1.0855602966935009e-08
000530 39 11 81 b3 c7 3c ee 3c 3b 94 0d a5 bf 1c 88 bc
       3.357028232987077e-15 -4.1828171597616916e-17
000540 10 6c 9e 26 35 b5 f4 be 4a 68 12 e3 f1 7d 88 bb
       -1.9748537318880403e-05 -6.482971048929785e-22
000550 1e f4 7c df 66 43 1c 94 a2 ea 26 00 00 00 00 00
       -8.395484272057259e-212 1.260082e-317
000560 d7 c4 0f dc 83 9b 01 bf 49 d6 a4 a0 5c b0 2b ba
       -3.3583604370232625e-05 -1.7474161021171534e-28
000570 9b 72 8f 59 8a 8d ee a9 cf ae c5 c5 47 17 74 2d
       -1.0407439073135272e-106 9.862829692540542e-90
000580 e2 07 e4 ee bc e3 00 3f 20 82 a1 fb 08 67 9b bb
       3.221435859936097e-05 -1.4506752556205002e-21
000590 3e 1b 4f 2f 9d 97 64 a6 0e 8b fb aa cb 5c e2 97
       -9.7345398744205e-124 -1.257720665901115e-193
0005a0 f6 db e7 d0 08 af f5 a9 45 9e 19 2c bf 3e 28 ab
       -1.4772551066254664e-106 -8.659952752903589e-101
0005b0 19 8b 42 a1 c6 f3 9f 3d 21 b7 9d fa 9e 44 33 34
       7.265100430703459e-12 3.0695775915072194e-57
0005c0 b5 6f 36 0d 02 92 ad b8 ed 50 4b f8 98 9e cc 3d
       -1.1123127070330595e-35 5.205860658939001e-11
0005d0 12 41 8b 57 bd da 75 b9 35 1a fd c9 ef 98 a6 3f
       -6.734422849721726e-32 0.04413556423837798
0005e0 b5 a1 a1 25 5f 51 f6 1f 6c 46 46 07 fe 64 92 bf
       1.0403386871002274e-154 -0.017963380044938068
0005f0 30 8d cf dc 5d 68 87 bd a9 fe 53 c7 1e 15 31 2a
       -2.661145370976671e-12 1.8620570310632673e-105
000600 63 98 27 dd 81 5e 92 b4 31 a4 bc dc f9 74 01 35
       -1.8728815777719593e-55 2.2782366577792985e-53
000610 b0 df 71 0b e7 7b 62 82 29 7f ba 61 f0 0d 0b 3b
       -3.532889973369301e-297 2.7973644810845255e-24
000620 5c f3 4d af 5a cb 05 bb 81 b2 b3 78 22 8c 1b b3
       -2.2534832303570503e-24 -1.6741005590449556e-62
000630 86 1a 6e 7a 43 80 db bd 11 73 42 2e 14 f4 c0 bc
       -1.0004816298994899e-10 -4.705522897182175e-16
000640 ca 81 8c 66 36 7e 5a bf 77 6c a2 72 94 c9 2e 34
       -0.0016170054679563888 2.4523595985362348e-57
000650 66 7b 16 22 33 4b 64 b5 36 58 fd c6 66 84 22 bd
       -1.6950130034158127e-51 -3.2893142888906405e-14
000660 30 a3 cd 5f b5 94 e4 27 91 ba e6 37 48 96 b3 39
       1.6322846329636527e-116 9.657156051745556e-31
000670 f4 71 73 f7 ab a4 ab bd 82 f6 d6 b9 03 ab 3a 37
       -1.2570694253625384e-11 1.1958356263822771e-42
000680 6d ab 08 9f 0d a6 e6 3e c4 f0 2d a4 0f 3a ea bb
       1.0799715682704395e-05 -4.442992938024881e-20
000690 21 98 02 00 00 00 00 00 3b 6b 06 00 00 00 00 00
       8.39996e-319 2.07837e-318
0006a0 14 7c 4d ab c6 dd 01 8e 11 1b 87 ad fc ff ce 16
       -3.3492565291571255e-241 8.099791850072225e-199
0006b0 da 0b 35 0a b7 0b 00 80 f2 1f 0e 00 00 00 00 00
       -6.363949985156e-311 4.573477e-318
0006c0 20 fd 0a e8 ea cc 06 9a 1b c8 42 0c 00 00 00 80
       -2.6829726568042833e-183 -1.01630882e-315
0006d0 b6 18 74 ea b6 e5 d9 99 94 ca 35 3f 33 00 00 00
       -3.8092328809745023e-184 1.087457369547e-312
0006e0 22 23 27 13 4d f3 c7 bf d1 b6 c0 14 e7 b3 e4 3f
       -0.1871124595184251 0.6469607739761277
0006f0 ac 35 51 fd 64 ce b6 3f 0e 75 3e d8 67 a9 e3 bf
       0.08908682999136514 -0.6144293998255834
000700 5c 97 0d 4c e9 90 d1 bf f2 17 1e 51 35 77 ea bf
       -0.274469684858891 -0.8270517906501011
000710 96 89 ac 5f e3 2d a9 bf b1 8e c2 e5 02 20 ba 3f
       -0.049178224019004776 0.10205095395445586
000720 58 81 c4 80 29 13 c9 3f c0 3b 51 bb fc 19 d9 bf
       0.19589728152733232 -0.39221113484103043
000730 7b 63 73 be 20 7c c9 bb 49 b6 2f 00 00 00 00 00
       -1.0793264235397541e-20 1.5448726e-317
000740 4a e6 cd 77 30 08 58 92 34 a6 6d 02 62 17 1f 10
       -2.659334142172623e-220 5.006598539858594e-231
000750 93 0c 63 dc 5a 3d 01 ae 66 e3 27 99 47 01 c9 3b
       -4.333114364802655e-87 1.0590028894846165e-20
000760 35 a6 7d ce d0 45 77 99 0a eb d9 59 a1 c0 52 20
       -5.348719019250336e-186 5.594490051938191e-153
000770 a5 a9 26 00 00 00 00 00 1c 91 6d ba 8e 2d e1 a9
       1.251862e-317 -5.851444801901835e-107
000780 4c 7e 3a c5 34 c0 72 82 7c 67 31 00 00 00 00 80
       -7.167772394583809e-297 -1.599664e-317
000790 c8 40 e4 e9 66 78 20 82 04 97 d4 63 58 6f 63 1c
       -1.9675072967798517e-298 6.286309279583874e-172
0007a0 26 d3 55 ad 58 e9 0f 0b 69 45 70 34 1d 66 c6 84
       2.1253038842741056e-255 -1.1767941134972534e-285
0007b0 5a cc 15 00 00 00 00 00 08 d7 1a 00 00 00 00 00
       7.058074e-318 8.690536e-318
0007c0 aa f6 68 24 38 e3 6e 8a 34 ad dc 89 f0 e5 c0 82
       -2.00889645348074e-258 -2.0670679285192036e-295
0007d0 a3 d8 16 00 00 00 00 00 eb c0 15 00 00 00 00 80
       7.397403e-318 -7.04361e-318
0007e0 b9 70 a0 af ff 7c 32 3d 84 c8 91 a7 0b a5 a2 11
       6.568355267468177e-14 1.0074159944439413e-223
0007f0 9e 0e b2 16 64 ff 2f 80 de 8f dd 9f ca eb 74 17
       -8.899633747590703e-308 1.119506252775425e-195
