proyecto/Mnist/pesosguardadosc2/weights.npy (npy, 32896 bytes, 1 tensors)

array f8 [128, 32]
1.338093e-318 4.6077624e-317 -6.21757e-319 -5.33354e-318 1.11922e-318 2.451485e-317 2.194363e-318 -2.889106e-317
1.420507e-317 9.34485e-318 5.170086e-318 8.71327e-318 5.29184e-318 1.498690778649457e-272 -7.6003e-319 1.201326e-318
-6.4765557210656566e-257 5.962331e-317 6.060051e-317 5.299225e-317 4.3363514e-317 -1.6205966e-317 -8.503003e-318 -8.190373e-318
1.94227e-318 -3.417557e-317 1.570758e-317 2.397119e-317 -7.8804e-319 -1.540286e-317 3.345872e-317 -2.1046327e-317
-1.1426337603329312e-05 -4.602694150304664e-06 -1.101997939112864e-19 1.04788e-317 -2.2621883e-317 -9.420134387668994e-20 -0.0002191543623260454 -5.5155105562901395e-68
-1.6277062759862642e-09 -3.2230274162914475e-216 3.0918302993566014e-15 3.618083848211292e-14 -9.91461e-318 -5.7827965631257396e-05 -2.9533466e-317 1.8102926e-317
-0.0002727601114714767 -9.59474e-318 3.687041775275116e-44 1.0896557618429897e-06 -0.01001495652372125 -2.426446e-317 -5.697908957188073e-45 3.729375e-318
-2.5199043e-317 -4.21127e-318 -0.0001077307431712739 1.3815656842938334e-38 -0.000910909577340724 -3.4986483e-317 -4.72124e-319 -1.274493e-317
4.0375504e-317 1.4534013e-317 -9.77941e-318 -1.8665247e-317 -3.8559907e-317 -5.760001e-317 8.08338e-318 2.222864e-317
-3.5198502731275984e-132 2.428767e-318 -7.716647631619857e-101 4.953861728005724e-94 -3.9429586e-317 -7.274750692311709e-41 6.92198e-318 -4.1650277e-317
-1.4253806433723722e-23 1.3026994e-317 -2.9533466e-317 -6.4850464e-317 -6.9916835e-317 -1.3601687e-317 1.7872736137609337e-228 -1.321588e-317
1.94227e-318 -2.7956937e-317 -3.3898931115380034e-103 4.1775073e-317 2.5790681609498645e-124 -3.568318e-317 2.648594e-317 -2.7615246e-317
1.3343913994772564e-53 1.133843731331453e-13 7.262207e-318 -1.864154e-317 -1.2243386e-317 2.095218957471552e-38 2.0391470849132556e-24 2.6726323e-317
-5.51102845473883e-200 1.662269e-317 9.620815379810938e-275 -1.4235304337210454e-63 -5.191953e-318 -1.6695145146581758e-07 1.971523e-317 -2.7993443e-317
2.02869327760919e-14 1.040491e-317 -9.406465820941304e-183 -3.4484313552963085e-123 -0.0005185960653248512 1.91397e-318 -3.781702761987565e-192 -1.629915e-317
4.527283e-317 -1.0617757e-317 -1.6588713446411078e-07 3.31535190217576e-265 -4.7404710765365965e-06 -5.867909e-317 -2.772583e-318 -1.8007843e-317
2.463267838061817e-203 1.398312034566341e-19 3.567027e-317 -2.7895297e-317 4.980595e-317 -3.3538587365896757e-73 -4.2358763353010984e-38 -3.4421484e-317
-1.155753e-318 -1.0757687e-317 4.987667e-317 6.779568622378179e-81 -4.9556805e-317 -3.133937754909395e-15 2.194363e-318 -4.5347993e-317
1.7536665295750647e-18 -3.0149753e-317 -5.616450576814505e-193 -4.1775073e-317 -1.0203308495381082e-07 -3.420366e-317 -7.26826e-318 -1.81827e-317
-4.045945e-317 -2.7084e-319 -2.290929987859292e-10 -6.12761e-318 -8.774561766543598e-12 2.5252377e-317 1.780796e-317 -1.0617757e-317
-9.3948e-319 3.9766287e-317 -3.944976e-318 -4.1650277e-317 2.625929e-317 -1.417875e-318 -3.2281993435740627e-29 -1.4403777e-317
0.7494786503998527 5.1506e-319 0.17592300169117916 0.21443300640638713 -3.678701e-317 -1.1623278159617128 1.550097e-317 -1.5608e-317
-4.634232474172043e-11 -8.768514e-318 -3.3422136373156516e-175 -2.744847766537831e-269 -7.580833650127222e-47 1.3424455e-317 0.5680593704500495 1.840364e-317
-5.819982e-317 2.7316e-319 0.5006621156001921 -2.2707865e-317 -0.2978892758726935 1.3601687e-317 -6.930150691266796e-17 4.35064e-319
-4.296706e-317 -2.766909e-317 -4.6022803e-317 -1.1920796e-317 1.94227e-318 -3.281686e-317 -2.46052e-318 3.1147825e-317
7.350274e-318 2.085703e-318 -5.29184e-318 -2.2775344e-317 1.4166003e-317 2.7956937e-317 3.788235e-317 4.93851e-317
-5.25672e-318 3.8559907e-317 -2.7956937e-317 -4.541197e-317 -3.6720545e-317 -1.111976e-317 1.11922e-318 -3.798673e-318
-2.1217906e-317 3.8559907e-317 -2.7146234e-317 3.55502e-317 9.7279e-319 3.122861e-317 5.685038e-317 3.380823e-317
-2.450722603254479e-55 1.0256605437750134e-210 6.066055025531994e-218 -2.581666e-318 1.4534013e-317 2.2868696752674436e-81 3.3221139383987197e-113 -4.913687907737326e-10
4.847726055477198e-09 3.688634725261754e-145 -0.0053298679393071705 -4.216233304814722e-25 4.6248546e-317 3.0793669286765773e-09 4.5227145e-317 -5.819982e-317
9.985272169149174e-115 -2.3542337e-317 6.946580410730774e-137 -3.6070049038511023e-35 -4.662283246973241e-43 5.2527998817663446e-267 1.7414660701088726e-28 4.1559938e-317
6.92198e-318 -1.2096733e-317 2.838454717659878e-27 2.947838e-317 -5.5869861515848666e-14 2.47794e-318 -6.6283595e-317 -1.6623185e-317
00000000: f121 0400 0000 0000 874e 8e00 0000 0000
00000010: 95eb 0100 0000 0080 e178 1000 0000 0080
00000020: e574 0300 0000 0000 45b6 4b00 0000 0000
00000030: f0c6 0600 0000 0000 403a 5900 0000 0080
00000040: 02df 2b00 0000 0000 5bdc 1c00 0000 0000
00000050: a5f7 0f00 0000 0000 01e9 1a00 0000 0000
00000060: e857 1000 0000 0000 d17b 650d 0d37 8007
00000070: e858 0200 0000 0080 cfb5 0300 0000 0000
00000080: ead7 f12f 5e1e bf8a 3424 b800 0000 0000
00000090: d028 bb00 0000 0000 77a9 a300 0000 0000
000000a0: a9ec 8500 0000 0000 fc0c 3200 0000 0080
000000b0: c342 1a00 0000 0080 964b 1900 0000 0080
000000c0: a0ff 0500 0000 0000 5c8c 6900 0000 0080
000000d0: f282 3000 0000 0000 6f08 4a00 0000 0000
000000e0: 0d6f 0200 0000 0080 0692 2f00 0000 0080
000000f0: 9855 6700 0000 0000 f0ff 4000 0000 0080
00000100: 7320 d9e1 77f6 e7be 8cd9 30ef 1a4e d3be
00000110: ae55 6802 3b43 00bc e55c 2000 0000 0000
00000120: a0dd 4500 0000 0080 8397 5bfd a6cd fbbb
00000130: 4c86 4fa3 99b9 2cbf abba 932e aaca f7b1
00000140: 6928 3158 baf6 1bbe f119 c3ec efc6 3193
00000150: ec49 d878 46d9 eb3c 6faa f055 355e 243d
00000160: d39e 1e00 0000 0080 2843 fac4 8951 0ebf
00000170: 2836 5b00 0000 0080 c9e8 3700 0000 0000
00000180: a407 28c2 27e0 31bf eda1 1d00 0000 0080
00000190: 46e8 17a1 c54f ea36 a3f8 2f2e 0948 b23e
000001a0: 5f05 ecb5 b882 84bf 4df0 4a00 0000 0080
000001b0: 4834 296b c043 c0b6 9284 0b00 0000 0000
000001c0: 37d3 4d00 0000 0080 9301 0d00 0000 0080
000001d0: ba9f 2413 b03d 1cbf 6b06 a3c5 0dce 1238
000001e0: 34bf 116c 43d9 4dbf 7f0d 6c00 0000 0080
000001f0: 4775 0100 0000 0080 935c 2700 0000 0080
00000200: 3db2 7c00 0000 0000 15e3 2c00 0000 0000
00000210: ef33 1e00 0000 0080 60a5 3900 0000 0080
00000220: c416 7700 0000 0080 84e4 b100 0000 0080
00000230: fef6 1800 0000 0000 b7a6 4400 0000 0000
00000240: dcd2 571a bafc a3a4 4480 0700 0000 0000
00000250: e0b1 2ea7 a99a 25ab b32b f8c3 8d88 902c
00000260: 5dc6 7900 0000 0080 d464 eb61 4b59 99b7
00000270: c060 1500 0000 0000 1ea2 8000 0000 0080
00000280: b9fc 7fe4 563b 31bb 953b 2800 0000 0000
00000290: 2836 5b00 0000 0080 f848 c800 0000 0080
000002a0: 9dee d700 0000 0080 f401 2a00 0000 0080
000002b0: 7b3e 289b 8cad a510 ecd0 2800 0000 0080
000002c0: a0ff 0500 0000 0000 b357 5600 0000 0080
000002d0: 13c3 29aa c54b a8aa c904 8100 0000 0000
000002e0: 92cf 66d3 a4d2 4526 5434 6e00 0000 0080
000002f0: aecc 5100 0000 0000 8c49 5500 0000 0080
00000300: 169a ebb0 1173 f434 877a 5d83 34ea 3f3d
00000310: bf6d 1600 0000 0000 a292 3900 0000 0080
00000320: 09d0 2500 0000 0080 f374 a4c3 c584 1c38
00000330: 34af 5803 afb8 033b bc8a 5200 0000 0000
00000340: e110 fd61 a9df 9096 7656 3300 0000 0000
00000350: cbf9 385c c8a5 0a07 d72a 0ebf 49bd e2b2
00000360: ef08 1000 0000 0080 3a22 4e7f 6868 86be
00000370: 87e3 3c00 0000 0000 9074 5600 0000 0080
00000380: 1337 876d 4fd7 163d 7922 2000 0000 0000
00000390: 9b79 03dd 09fc 239a 5104 8e23 a23c 82a6
000003a0: 71c6 f891 4cfe 40bf 40e9 0500 0000 0000
000003b0: 4845 8aa9 f840 3198 a956 3200 0000 0080
000003c0: 3bd2 8b00 0000 0000 c2ca 2000 0000 0080
000003d0: f6a3 7aaa d643 86be 9703 aed2 6161 0509
000003e0: 4067 77c4 0ae2 d3be ac39 b500 0000 0080
000003f0: 1990 0800 0000 0080 9c9d 3700 0000 0080
00000400: 00d0 9a8f 66e4 de15 0d38 006b aca2 043c
00000410: 1f2a 6e00 0000 0000 f726 5600 0000 0080
00000420: 45d2 9900 0000 0000 3227 0cfe 60f6 e2b0
00000430: c179 17fa efd3 2cb8 ca4e 6a00 0000 0080
00000440: c791 0300 0000 0080 6439 2100 0000 0080
00000450: 2e0a 9a00 0000 0000 9380 1e81 3ab9 492f
00000460: 490d 9900 0000 0080 c933 9f53 5e3a ecbc
00000470: f0c6 0600 0000 0000 a80d 8c00 0000 0080
00000480: e57f 905f ba2c 403c 6a1d 5d00 0000 0080
00000490: c3d7 f26f f17f 0498 c904 8100 0000 0080
000004a0: 35a0 6003 a963 7bbe 92a2 6900 0000 0080
000004b0: 8872 1600 0000 0080 db27 3800 0000 0080
000004c0: 9cf4 7c00 0000 0080 23d6 0000 0000 0080
000004d0: 97d8 b549 7e7c efbd b2ec 1200 0000 0080
000004e0: d163 889e a34b a3bd 62fd 4d00 0000 0000
000004f0: 93ff 3600 0000 0000 c2ca 2000 0000 0080
00000500: c9e6 0200 0000 0080 92d0 7a00 0000 0000
00000510: 082f 0c00 0000 0080 1ea2 8000 0000 0080
00000520: 7b19 5100 0000 0000 0561 0400 0000 0080
00000530: 8feb 798b 0d76 04ba 1d7c 2c00 0000 0080
00000540: 0e90 90a6 bafb e73f 3997 0100 0000 0000
00000550: ad5a 7019 a584 c63f e264 d96e 8a72 cb3f
00000560: 0e9d 7100 0000 0080 2c96 4c0d e598 f2bf
00000570: 97df 2f00 0000 0000 3634 3000 0000 0080
00000580: d747 2536 1a7a c9bd af14 1b00 0000 0080
00000590: 44e6 93c0 6829 b59b 8222 546d 7300 2d88
000005a0: 743a 9806 d1b2 5bb6 d475 2900 0000 0000
000005b0: 339e 48d8 8a2d e23f 8ad6 3800 0000 0000
000005c0: bfbe b300 0000 0080 f8d7 0000 0000 0000
000005d0: fb2a 9b8e 6c05 e03f 9b21 4600 0000 0080
000005e0: 25f3 6c2e 9e10 d3bf f401 2a00 0000 0000
000005f0: 1501 2e74 8cf9 93bc fa57 0100 0000 0000
00000600: 36b3 8400 0000 0080 1e74 5500 0000 0080
00000610: 2f23 8e00 0000 0080 fcd0 2400 0000 0080
00000620: a0ff 0500 0000 0000 1e5a 6500 0000 0080
00000630: 5f99 0700 0000 0080 8632 6000 0000 0000
00000640: 60b3 1600 0000 0000 0771 0600 0000 0000
00000650: e857 1000 0000 0080 f556 4600 0000 0080
00000660: 1fc0 2b00 0000 0000 b357 5600 0000 0000
00000670: 11ff 7400 0000 0000 8885 9800 0000 0000
00000680: 243c 1000 0000 0080 c416 7700 0000 0000
00000690: b357 5600 0000 0080 3d40 8c00 0000 0080
000006a0: 8168 7100 0000 0080 a857 2200 0000 0080
000006b0: e574 0300 0000 0000 5cbb 0b00 0000 0080
000006c0: 9887 4100 0000 0080 c416 7700 0000 0000
000006d0: bbd6 5300 0000 0080 31cb 6d00 0000 0000
000006e0: 1f01 0300 0000 0000 6572 6000 0000 0000
000006f0: d593 af00 0000 0000 ee69 6800 0000 0000
00000700: 8810 3dc1 5f09 98b4 6f8a 90b9 9894 5514
00000710: 268b 38b9 cc69 d512 27f9 0700 0000 0080
00000720: 15e3 2c00 0000 0000 9154 9b6d a15a 312f
00000730: ae30 7f0c eb73 9428 7fb0 c926 20e2 00be
00000740: 65d7 1c94 21d2 343e b90a 003a 8a6c f221
00000750: ba75 dc87 c5d4 75bf 8d01 cb22 8e4f e0ba
00000760: aad5 8e00 0000 0000 05af 1478 9973 2a3e
00000770: 1cae 8b00 0000 0000 bfbe b300 0000 0080
00000780: 11dd 5e64 07ac 4328 5eb5 4800 0000 0080
00000790: cd7b 89ea e1d9 a923 e902 7436 00f9 c7b8
000007a0: bc00 7aeb 62cb 24b7 9e5a df07 0dae a508
000007b0: 97d4 d1c2 3998 2b3a b15a 8000 0000 0000
000007c0: c060 1500 0000 0000 165c 2500 0000 0080
000007d0: a366 6f70 561c 6c3a 9b0a 5b00 0000 0000
000007e0: 3a9b d912 b273 2fbd 25a7 0700 0000 0000
000007f0: 0db6 cc00 0000 0080 da56 3300 0000 0080
